2024-09-24 08:45:29,760 ----------------------------------------------------------------------------------------------------
2024-09-24 08:45:29,762 Model: "TextClassifier(
  (embeddings): TransformerDocumentEmbeddings(
    (model): CamembertModel(
      (embeddings): CamembertEmbeddings(
        (word_embeddings): Embedding(32006, 1024)
        (position_embeddings): Embedding(514, 1024, padding_idx=1)
        (token_type_embeddings): Embedding(1, 1024)
        (LayerNorm): LayerNorm((1024,), eps=1e-05, elementwise_affine=True)
        (dropout): Dropout(p=0.1, inplace=False)
      )
      (encoder): CamembertEncoder(
        (layer): ModuleList(
          (0-23): 24 x CamembertLayer(
            (attention): CamembertAttention(
              (self): CamembertSelfAttention(
                (query): Linear(in_features=1024, out_features=1024, bias=True)
                (key): Linear(in_features=1024, out_features=1024, bias=True)
                (value): Linear(in_features=1024, out_features=1024, bias=True)
                (dropout): Dropout(p=0.1, inplace=False)
              )
              (output): CamembertSelfOutput(
                (dense): Linear(in_features=1024, out_features=1024, bias=True)
                (LayerNorm): LayerNorm((1024,), eps=1e-05, elementwise_affine=True)
                (dropout): Dropout(p=0.1, inplace=False)
              )
            )
            (intermediate): CamembertIntermediate(
              (dense): Linear(in_features=1024, out_features=4096, bias=True)
              (intermediate_act_fn): GELUActivation()
            )
            (output): CamembertOutput(
              (dense): Linear(in_features=4096, out_features=1024, bias=True)
              (LayerNorm): LayerNorm((1024,), eps=1e-05, elementwise_affine=True)
              (dropout): Dropout(p=0.1, inplace=False)
            )
          )
        )
      )
      (pooler): CamembertPooler(
        (dense): Linear(in_features=1024, out_features=1024, bias=True)
        (activation): Tanh()
      )
    )
  )
  (decoder): Linear(in_features=1024, out_features=2, bias=True)
  (dropout): Dropout(p=0.0, inplace=False)
  (locked_dropout): LockedDropout(p=0.0)
  (word_dropout): WordDropout(p=0.0)
  (loss_function): BCEWithLogitsLoss()
  (weights): None
  (weight_tensor) None
)"
2024-09-24 08:45:29,762 ----------------------------------------------------------------------------------------------------
2024-09-24 08:45:29,762 Corpus: 1225 train + 153 dev + 154 test sentences
…
